…
    DECAY_EPOCHS: 1
    DECAY_RATE: 0.1
    NAME: cosine
  MIN_LR: 1.5625e-13
  OPTIMIZER:
    BETAS:
    - 0.9
    - 0.999
    DCN_LR_MUL: null
    EPS: 1.0e-08
    FREEZE_BACKBONE: null
    MOMENTUM: 0.9
    NAME: adamw
    USE_ZERO: false
  RAND_INIT_FT_HEAD: false
  START_EPOCH: 0
  USE_CHECKPOINT: false
  WARMUP_EPOCHS: 1
  WARMUP_LR: 1.5625e-11
  WEIGHT_DECAY: 0.05

[2023-09-26 16:48:37 internimage_t_1k_224] (main.py 177): INFO Creating model:intern_image/internimage_t_1k_224
[2023-09-26 16:48:39 internimage_t_1k_224] (main.py 180): INFO InternImage(
  (patch_embed): StemLayer(
    (conv1): Conv2d(3, 32, kernel_size=(3, 3), stride=(2, 2), padding=(1, 1))
    (norm1): Sequential(
      (0): to_channels_last()
      (1): LayerNorm((32,), eps=1e-06, elementwise_affine=True)
      (2): to_channels_first()
    )
    (act): GELU()
    (conv2): Conv2d(32, 64, kernel_size=(3, 3), stride=(2, 2), padding=(1, 1))
    (norm2): Sequential(
      (0): to_channels_last()
      (1): LayerNorm((64,), eps=1e-06, elementwise_affine=True)
    )
  )
  (pos_drop): Dropout(p=0.0, inplace=False)
  (levels): ModuleList(
    (0): InternImageBlock(
      (blocks): ModuleList(
        (0): InternImageLayer(
          (norm1): Sequential(
            (0): LayerNorm((64,), eps=1e-06, elementwise_affine=True)
          )
          (dcn): DCNv3(
            (dw_conv): Sequential(
              (0): Conv2d(64, 64, kernel_size=(3, 3), stride=(1, 1), padding=(1, 1), groups=64)
              (1): Sequential(
                (0): to_channels_last()
                (1): LayerNorm((64,), eps=1e-06, elementwise_affine=True)
              )
              (2): GELU()
            )
            (offset): Linear(in_features=64, out_features=72, bias=True)
            (mask): Linear(in_features=64, out_features=36, bias=True)
            (input_proj): Linear(in_features=64, out_features=64, bias=True)
            (output_proj): Linear(in_features=64, out_features=64, bias=True)
          )
          (drop_path): Identity()
          (norm2): Sequential(
            (0): LayerNorm((64,), eps=1e-06, elementwise_affine=True)
          )
          (mlp): MLPLayer(
            (fc1): Linear(in_features=64, out_features=256, bias=True)
            (act): GELU()
            (fc2): Linear(in_features=256, out_features=64, bias=True)
            (drop): Dropout(p=0.0, inplace=False)
          )
        )
        (1): InternImageLayer(
          (norm1): Sequential(
            (0): LayerNorm((64,), eps=1e-06, elementwise_affine=True)
          )
          (dcn): DCNv3(
            (dw_conv): Sequential(
              (0): Conv2d(64, 64, kernel_size=(3, 3), stride=(1, 1), padding=(1, 1), groups=64)
              (1): Sequential(
                (0): to_channels_last()
                (1): LayerNorm((64,), eps=1e-06, elementwise_affine=True)
              )
              (2): GELU()
            )
            (offset): Linear(in_features=64, out_features=72, bias=True)
            (mask): Linear(in_features=64, out_features=36, bias=True)
            (input_proj): Linear(in_features=64, out_features=64, bias=True)
            (output_proj): Linear(in_features=64, out_features=64, bias=True)
          )
          (drop_path): DropPath()
          (norm2): Sequential(
            (0): LayerNorm((64,), eps=1e-06, elementwise_affine=True)
          )
          (mlp): MLPLayer(
            (fc1): Linear(in_features=64, out_features=256, bias=True)
            (act): GELU()
            (fc2): Linear(in_features=256, out_features=64, bias=True)
            (drop): Dropout(p=0.0, inplace=False)
          )
        )
        (2): InternImageLayer(
          (norm1): Sequential(
            (0): LayerNorm((64,), eps=1e-06, elementwise_affine=True)
          )
          (dcn): DCNv3(
            (dw_conv): Sequential(
              (0): Conv2d(64, 64, kernel_size=(3, 3), stride=(1, 1), padding=(1, 1), groups=64)
              (1): Sequential(
                (0): to_channels_last()
                (1): LayerNorm((64,), eps=1e-06, elementwise_affine=True)
              )
              (2): GELU()
            )
            (offset): Linear(in_features=64, out_features=72, bias=True)
            (mask): Linear(in_features=64, out_features=36, bias=True)
            (input_proj): Linear(in_features=64, out_features=64, bias=True)
            (output_proj): Linear(in_features=64, out_features=64, bias=True)
          )
          (drop_path): DropPath()
          (norm2): Sequential(
            (0): LayerNorm((64,), eps=1e-06, elementwise_affine=True)
          )
          (mlp): MLPLayer(
            (fc1): Linear(in_features=64, out_features=256, bias=True)
            (act): GELU()
            (fc2): Linear(in_features=256, out_features=64, bias=True)
            (drop): Dropout(p=0.0, inplace=False)
          )
        )
        (3): InternImageLayer(
          (norm1): Sequential(
            (0): LayerNorm((64,), eps=1e-06, elementwise_affine=True)
          )
          (dcn): DCNv3(
            (dw_conv): Sequential(
              (0): Conv2d(64, 64, kernel_size=(3, 3), stride=(1, 1), padding=(1, 1), groups=64)
              (1): Sequential(
                (0): to_channels_last()
                (1): LayerNorm((64,), eps=1e-06, elementwise_affine=True)
              )
              (2): GELU()
            )
            (offset): Linear(in_features=64, out_features=72, bias=True)
            (mask): Linear(in_features=64, out_features=36, bias=True)
            (input_proj): Linear(in_features=64, out_features=64, bias=True)
            (output_proj): Linear(in_features=64, out_features=64, bias=True)
          )
          (drop_path): DropPath()
          (norm2): Sequential(
            (0): LayerNorm((64,), eps=1e-06, elementwise_affine=True)
          )
          (mlp): MLPLayer(
            (fc1): Linear(in_features=64, out_features=256, bias=True)
            (act): GELU()
            (fc2): Linear(in_features=256, out_features=64, bias=True)
            (drop): Dropout(p=0.0, inplace=False)
          )
        )
      )
      (norm): Sequential(
        (0): LayerNorm((64,), eps=1e-06, elementwise_affine=True)
      )
      (downsample): DownsampleLayer(
        (conv): Conv2d(64, 128, kernel_size=(3, 3), stride=(2, 2), padding=(1, 1), bias=False)
        (norm): Sequential(
          (0): to_channels_last()
          (1): LayerNorm((128,), eps=1e-06, elementwise_affine=True)
        )
      )
    )
    (1): InternImageBlock(
      (blocks): ModuleList(
        (0): InternImageLayer(
          (norm1): Sequential(
            (0): LayerNorm((128,), eps=1e-06, elementwise_affine=True)
          )
          (dcn): DCNv3(
            (dw_conv): Sequential(
              (0): Conv2d(128, 128, kernel_size=(3, 3), stride=(1, 1), padding=(1, 1), groups=128)
              (1): Sequential(
                (0): to_channels_last()
                (1): LayerNorm((128,), eps=1e-06, elementwise_affine=True)
              )
              (2): GELU()
            )
            (offset): Linear(in_features=128, out_features=144, bias=True)
            (mask): Linear(in_features=128, out_features=72, bias=True)
            (input_proj): Linear(in_features=128, out_features=128, bias=True)
            (output_proj): Linear(in_features=128, out_features=128, bias=True)
          )
          (drop_path): DropPath()
          (norm2): Sequential(
            (0): LayerNorm((128,), eps=1e-06, elementwise_affine=True)
          )
          (mlp): MLPLayer(
            (fc1): Linear(in_features=128, out_features=512, bias=True)
            (act): GELU()
            (fc2): Linear(in_features=512, out_features=128, bias=True)
            (drop): Dropout(p=0.0, inplace=False)
          )
        )
        (1): InternImageLayer(
          (norm1): Sequential(
            (0): LayerNorm((128,), eps=1e-06, elementwise_affine=True)
          )
          (dcn): DCNv3(
            (dw_conv): Sequential(
              (0): Conv2d(128, 128, kernel_size=(3, 3), stride=(1, 1), padding=(1, 1), groups=128)
              (1): Sequential(
                (0): to_channels_last()
                (1): LayerNorm((128,), eps=1e-06, elementwise_affine=True)
              )
              (2): GELU()
            )
            (offset): Linear(in_features=128, out_features=144, bias=True)
            (mask): Linear(in_features=128, out_features=72, bias=True)
            (input_proj): Linear(in_features=128, out_features=128, bias=True)
            (output_proj): Linear(in_features=128, out_features=128, bias=True)
          )
          (drop_path): DropPath()
          (norm2): Sequential(
            (0): LayerNorm((128,), eps=1e-06, elementwise_affine=True)
          )
          (mlp): MLPLayer(
            (fc1): Linear(in_features=128, out_features=512, bias=True)
            (act): GELU()
            (fc2): Linear(in_features=512, out_features=128, bias=True)
            (drop): Dropout(p=0.0, inplace=False)
          )
        )
        (2): InternImageLayer(
          (norm1): Sequential(
            (0): LayerNorm((128,), eps=1e-06, elementwise_affine=True)
          )
          (dcn): DCNv3(
            (dw_conv): Sequential(
              (0): Conv2d(128, 128, kernel_size=(3, 3), stride=(1, 1), padding=(1, 1), groups=128)
              (1): Sequential(
                (0): to_channels_last()
                (1): LayerNorm((128,), eps=1e-06, elementwise_affine=True)
              )
              (2): GELU()
            )
            (offset): Linear(in_features=128, out_features=144, bias=True)
            (mask): Linear(in_features=128, out_features=72, bias=True)
            (input_proj): Linear(in_features=128, out_features=128, bias=True)
            (output_proj): Linear(in_features=128, out_features=128, bias=True)
          )
          (drop_path): DropPath()
          (norm2): Sequential(
            (0): LayerNorm((128,), eps=1e-06, elementwise_affine=True)
          )
          (mlp): MLPLayer(
            (fc1): Linear(in_features=128, out_features=512, bias=True)
            (act): GELU()
            (fc2): Linear(in_features=512, out_features=128, bias=True)
            (drop): Dropout(p=0.0, inplace=False)
          )
        )
        (3): InternImageLayer(
          (norm1): Sequential(
            (0): LayerNorm((128,), eps=1e-06, elementwise_affine=True)
          )
          (dcn): DCNv3(
            (dw_conv): Sequential(
              (0): Conv2d(128, 128, kernel_size=(3, 3), stride=(1, 1), padding=(1, 1), groups=128)
              (1): Sequential(
                (0): to_channels_last()
                (1): LayerNorm((128,), eps=1e-06, elementwise_affine=True)
              )
              (2): GELU()
            )
            (offset): Linear(in_features=128, out_features=144, bias=True)
            (mask): Linear(in_features=128, out_features=72, bias=True)
            (input_proj): Linear(in_features=128, out_features=128, bias=True)
            (output_proj): Linear(in_features=128, out_features=128, bias=True)
          )
          (drop_path): DropPath()
          (norm2): Sequential(
            (0): LayerNorm((128,), eps=1e-06, elementwise_affine=True)
          )
          (mlp): MLPLayer(
            (fc1): Linear(in_features=128, out_features=512, bias=True)
            (act): GELU()
            (fc2): Linear(in_features=512, out_features=128, bias=True)
            (drop): Dropout(p=0.0, inplace=False)
          )
        )
      )
      (norm): Sequential(
        (0): LayerNorm((128,), eps=1e-06, elementwise_affine=True)
      )
      (downsample): DownsampleLayer(
        (conv): Conv2d(128, 256, kernel_size=(3, 3), stride=(2, 2), padding=(1, 1), bias=False)
        (norm): Sequential(
          (0): to_channels_last()
          (1): LayerNorm((256,), eps=1e-06, elementwise_affine=True)
        )
      )
    )
    (2): InternImageBlock(
      (blocks): ModuleList(
        (0): InternImageLayer(
          (norm1): Sequential(
            (0): LayerNorm((256,), eps=1e-06, elementwise_affine=True)
          )
          (dcn): DCNv3(
            (dw_conv): Sequential(
              (0): Conv2d(256, 256, kernel_size=(3, 3), stride=(1, 1), padding=(1, 1), groups=256)
              (1): Sequential(
                (0): to_channels_last()
                (1): LayerNorm((256,), eps=1e-06, elementwise_affine=True)
              )
              (2): GELU()
            )
            (offset): Linear(in_features=256, out_features=288, bias=True)
            (mask): Linear(in_features=256, out_features=144, bias=True)
            (input_proj): Linear(in_features=256, out_features=256, bias=True)
            (output_proj): Linear(in_features=256, out_features=256, bias=True)
          )
          (drop_path): DropPath()
          (norm2): Sequential(
            (0): LayerNorm((256,), eps=1e-06, elementwise_affine=True)
          )
          (mlp): MLPLayer(
            (fc1): Linear(in_features=256, out_features=1024, bias=True)
            (act): GELU()
            (fc2): Linear(in_features=1024, out_features=256, bias=True)
            (drop): Dropout(p=0.0, inplace=False)
          )
        )
        (1): InternImageLayer(
          (norm1): Sequential(
            (0): LayerNorm((256,), eps=1e-06, elementwise_affine=True)
          )
          (dcn): DCNv3(
            (dw_conv): Sequential(
              (0): Conv2d(256, 256, kernel_size=(3, 3), stride=(1, 1), padding=(1, 1), groups=256)
              (1): Sequential(
                (0): to_channels_last()
                (1): LayerNorm((256,), eps=1e-06, elementwise_affine=True)
              )
              (2): GELU()
            )
            (offset): Linear(in_features=256, out_features=288, bias=True)
            (mask): Linear(in_features=256, out_features=144, bias=True)
            (input_proj): Linear(in_features=256, out_features=256, bias=True)
            (output_proj): Linear(in_features=256, out_features=256, bias=True)
          )
          (drop_path): DropPath()
          (norm2): Sequential(
            (0): LayerNorm((256,), eps=1e-06, elementwise_affine=True)
          )
          (mlp): MLPLayer(
            (fc1): Linear(in_features=256, out_features=1024, bias=True)
            (act): GELU()
            (fc2): Linear(in_features=1024, out_features=256, bias=True)
            (drop): Dropout(p=0.0, inplace=False)
          )
        )
        (2): InternImageLayer(
          (norm1): Sequential(
            (0): LayerNorm((256,), eps=1e-06, elementwise_affine=True)
          )
          (dcn): DCNv3(
            (dw_conv): Sequential(
              (0): Conv2d(256, 256, kernel_size=(3, 3), stride=(1, 1), padding=(1, 1), groups=256)
              (1): Sequential(
                (0): to_channels_last()
                (1): LayerNorm((256,), eps=1e-06, elementwise_affine=True)
              )
              (2): GELU()
            )
            (offset): Linear(in_features=256, out_features=288, bias=True)
            (mask): Linear(in_features=256, out_features=144, bias=True)
            (input_proj): Linear(in_features=256, out_features=256, bias=True)
            (output_proj): Linear(in_features=256, out_features=256, bias=True)
          )
          (drop_path): DropPath()
          (norm2): Sequential(
            (0): LayerNorm((256,), eps=1e-06, elementwise_affine=True)
          )
          (mlp): MLPLayer(
            (fc1): Linear(in_features=256, out_features=1024, bias=True)
            (act): GELU()
            (fc2): Linear(in_features=1024, out_features=256, bias=True)
            (drop): Dropout(p=0.0, inplace=False)
          )
        )
        (3): InternImageLayer(
          (norm1): Sequential(
            (0): LayerNorm((256,), eps=1e-06, elementwise_affine=True)
          )
          (dcn): DCNv3(
            (dw_conv): Sequential(
              (0): Conv2d(256, 256, kernel_size=(3, 3), stride=(1, 1), padding=(1, 1), groups=256)
              (1): Sequential(
                (0): to_channels_last()
                (1): LayerNorm((256,), eps=1e-06, elementwise_affine=True)
              )
              (2): GELU()
            )
            (offset): Linear(in_features=256, out_features=288, bias=True)
            (mask): Linear(in_features=256, out_features=144, bias=True)
            (input_proj): Linear(in_features=256, out_features=256, bias=True)
            (output_proj): Linear(in_features=256, out_features=256, bias=True)
          )
          (drop_path): DropPath()
          (norm2): Sequential(
            (0): LayerNorm((256,), eps=1e-06, elementwise_affine=True)
          )
          (mlp): MLPLayer(
            (fc1): Linear(in_features=256, out_features=1024, bias=True)
            (act): GELU()
            (fc2): Linear(in_features=1024, out_features=256, bias=True)
            (drop): Dropout(p=0.0, inplace=False)
          )
        )
        (4): InternImageLayer(
          (norm1): Sequential(
            (0): LayerNorm((256,), eps=1e-06, elementwise_affine=True)
          )
          (dcn): DCNv3(
            (dw_conv): Sequential(
              (0): Conv2d(256, 256, kernel_size=(3, 3), stride=(1, 1), padding=(1, 1), groups=256)
              (1): Sequential(
                (0): to_channels_last()
                (1): LayerNorm((256,), eps=1e-06, elementwise_affine=True)
              )
              (2): GELU()
            )
            (offset): Linear(in_features=256, out_features=288, bias=True)
            (mask): Linear(in_features=256, out_features=144, bias=True)
            (input_proj): Linear(in_features=256, out_features=256, bias=True)
            (output_proj): Linear(in_features=256, out_features=256, bias=True)
          )
          (drop_path): DropPath()
          (norm2): Sequential(
            (0): LayerNorm((256,), eps=1e-06, elementwise_affine=True)
          )
          (mlp): MLPLayer(
            (fc1): Linear(in_features=256, out_features=1024, bias=True)
            (act): GELU()
            (fc2): Linear(in_features=1024, out_features=256, bias=True)
            (drop): Dropout(p=0.0, inplace=False)
          )
        )
        (5): InternImageLayer(
          (norm1): Sequential(
            (0): LayerNorm((256,), eps=1e-06, elementwise_affine=True)
          )
          (dcn): DCNv3(
            (dw_conv): Sequential(
              (0): Conv2d(256, 256, kernel_size=(3, 3), stride=(1, 1), padding=(1, 1), groups=256)
              (1): Sequential(
                (0): to_channels_last()
                (1): LayerNorm((256,), eps=1e-06, elementwise_affine=True)
              )
              (2): GELU()
            )
            (offset): Linear(in_features=256, out_features=288, bias=True)
            (mask): Linear(in_features=256, out_features=144, bias=True)
            (input_proj): Linear(in_features=256, out_features=256, bias=True)
            (output_proj): Linear(in_features=256, out_features=256, bias=True)
          )
          (drop_path): DropPath()
          (norm2): Sequential(
            (0): LayerNorm((256,), eps=1e-06, elementwise_affine=True)
          )
          (mlp): MLPLayer(
            (fc1): Linear(in_features=256, out_features=1024, bias=True)
            (act): GELU()
            (fc2): Linear(in_features=1024, out_features=256, bias=True)
            (drop): Dropout(p=0.0, inplace=False)
          )
        )
        (6): InternImageLayer(
          (norm1): Sequential(
            (0): LayerNorm((256,), eps=1e-06, elementwise_affine=True)
          )
          (dcn): DCNv3(
            (dw_conv): Sequential(
              (0): Conv2d(256, 256, kernel_size=(3, 3), stride=(1, 1), padding=(1, 1), groups=256)
              (1): Sequential(
                (0): to_channels_last()
                (1): LayerNorm((256,), eps=1e-06, elementwise_affine=True)
              )
              (2): GELU()
            )
            (offset): Linear(in_features=256, out_features=288, bias=True)
            (mask): Linear(in_features=256, out_features=144, bias=True)
            (input_proj): Linear(in_features=256, out_features=256, bias=True)
            (output_proj): Linear(in_features=256, out_features=256, bias=True)
          )
          (drop_path): DropPath()
          (norm2): Sequential(
            (0): LayerNorm((256,), eps=1e-06, elementwise_affine=True)
          )
          (mlp): MLPLayer(
            (fc1): Linear(in_features=256, out_features=1024, bias=True)
            (act): GELU()
            (fc2): Linear(in_features=1024, out_features=256, bias=True)
            (drop): Dropout(p=0.0, inplace=False)
          )
        )
        (7): InternImageLayer(
          (norm1): Sequential(
            (0): LayerNorm((256,), eps=1e-06, elementwise_affine=True)
          )
          (dcn): DCNv3(
            (dw_conv): Sequential(
              (0): Conv2d(256, 256, kernel_size=(3, 3), stride=(1, 1), padding=(1, 1), groups=256)
              (1): Sequential(
                (0): to_channels_last()
                (1): LayerNorm((256,), eps=1e-06, elementwise_affine=True)
              )
              (2): GELU()
            )
            (offset): Linear(in_features=256, out_features=288, bias=True)
            (mask): Linear(in_features=256, out_features=144, bias=True)
            (input_proj): Linear(in_features=256, out_features=256, bias=True)
            (output_proj): Linear(in_features=256, out_features=256, bias=True)
          )
          (drop_path): DropPath()
          (norm2): Sequential(
            (0): LayerNorm((256,), eps=1e-06, elementwise_affine=True)
          )
          (mlp): MLPLayer(
            (fc1): Linear(in_features=256, out_features=1024, bias=True)
            (act): GELU()
            (fc2): Linear(in_features=1024, out_features=256, bias=True)
            (drop): Dropout(p=0.0, inplace=False)
          )
        )
        (8): InternImageLayer(
          (norm1): Sequential(
            (0): LayerNorm((256,), eps=1e-06, elementwise_affine=True)
          )
          (dcn): DCNv3(
            (dw_conv): Sequential(
              (0): Conv2d(256, 256, kernel_size=(3, 3), stride=(1, 1), padding=(1, 1), groups=256)
              (1): Sequential(
                (0): to_channels_last()
                (1): LayerNorm((256,), eps=1e-06, elementwise_affine=True)
              )
              (2): GELU()
            )
            (offset): Linear(in_features=256, out_features=288, bias=True)
            (mask): Linear(in_features=256, out_features=144, bias=True)
            (input_proj): Linear(in_features=256, out_features=256, bias=True)
            (output_proj): Linear(in_features=256, out_features=256, bias=True)
          )
          (drop_path): DropPath()
          (norm2): Sequential(
            (0): LayerNorm((256,), eps=1e-06, elementwise_affine=True)
          )
          (mlp): MLPLayer(
            (fc1): Linear(in_features=256, out_features=1024, bias=True)
            (act): GELU()
            (fc2): Linear(in_features=1024, out_features=256, bias=True)
            (drop): Dropout(p=0.0, inplace=False)
          )
        )
        (9): InternImageLayer(
          (norm1): Sequential(
            (0): LayerNorm((256,), eps=1e-06, elementwise_affine=True)
          )
          (dcn): DCNv3(
            (dw_conv): Sequential(
              (0): Conv2d(256, 256, kernel_size=(3, 3), stride=(1, 1), padding=(1, 1), groups=256)
              (1): Sequential(
                (0): to_channels_last()
                (1): LayerNorm((256,), eps=1e-06, elementwise_affine=True)
              )
              (2): GELU()
            )
            (offset): Linear(in_features=256, out_features=288, bias=True)
            (mask): Linear(in_features=256, out_features=144, bias=True)
            (input_proj): Linear(in_features=256, out_features=256, bias=True)
            (output_proj): Linear(in_features=256, out_features=256, bias=True)
          )
          (drop_path): DropPath()
          (norm2): Sequential(
            (0): LayerNorm((256,), eps=1e-06, elementwise_affine=True)
          )
          (mlp): MLPLayer(
            (fc1): Linear(in_features=256, out_features=1024, bias=True)
            (act): GELU()
            (fc2): Linear(in_features=1024, out_features=256, bias=True)
            (drop): Dropout(p=0.0, inplace=False)
          )
        )
        (10): InternImageLayer(
          (norm1): Sequential(
            (0): LayerNorm((256,), eps=1e-06, elementwise_affine=True)
          )
          (dcn): DCNv3(
            (dw_conv): Sequential(
              (0): Conv2d(256, 256, kernel_size=(3, 3), stride=(1, 1), padding=(1, 1), groups=256)
              (1): Sequential(
                (0): to_channels_last()
                (1): LayerNorm((256,), eps=1e-06, elementwise_affine=True)
              )
              (2): GELU()
            )
            (offset): Linear(in_features=256, out_features=288, bias=True)
            (mask): Linear(in_features=256, out_features=144, bias=True)
            (input_proj): Linear(in_features=256, out_features=256, bias=True)
            (output_proj): Linear(in_features=256, out_features=256, bias=True)
          )
          (drop_path): DropPath()
          (norm2): Sequential(
            (0): LayerNorm((256,), eps=1e-06, elementwise_affine=True)
          )
          (mlp): MLPLayer(
            (fc1): Linear(in_features=256, out_features=1024, bias=True)
            (act): GELU()
            (fc2): Linear(in_features=1024, out_features=256, bias=True)
            (drop): Dropout(p=0.0, inplace=False)
          )
        )
        (11): InternImageLayer(
          (norm1): Sequential(
            (0): LayerNorm((256,), eps=1e-06, elementwise_affine=True)
          )
          (dcn): DCNv3(
            (dw_conv): Sequential(
              (0): Conv2d(256, 256, kernel_size=(3, 3), stride=(1, 1), padding=(1, 1), groups=256)
              (1): Sequential(
                (0): to_channels_last()
                (1): LayerNorm((256,), eps=1e-06, elementwise_affine=True)
              )
              (2): GELU()
            )
            (offset): Linear(in_features=256, out_features=288, bias=True)
            (mask): Linear(in_features=256, out_features=144, bias=True)
            (input_proj): Linear(in_features=256, out_features=256, bias=True)
            (output_proj): Linear(in_features=256, out_features=256, bias=True)
          )
          (drop_path): DropPath()
          (norm2): Sequential(
            (0): LayerNorm((256,), eps=1e-06, elementwise_affine=True)
          )
          (mlp): MLPLayer(
            (fc1): Linear(in_features=256, out_features=1024, bias=True)
            (act): GELU()
            (fc2): Linear(in_features=1024, out_features=256, bias=True)
            (drop): Dropout(p=0.0, inplace=False)
          )
        )
        (12): InternImageLayer(
          (norm1): Sequential(
            (0): LayerNorm((256,), eps=1e-06, elementwise_affine=True)
          )
          (dcn): DCNv3(
            (dw_conv): Sequential(
              (0): Conv2d(256, 256, kernel_size=(3, 3), stride=(1, 1), padding=(1, 1), groups=256)
              (1): Sequential(
                (0): to_channels_last()
                (1): LayerNorm((256,), eps=1e-06, elementwise_affine=True)
              )
              (2): GELU()
            )
            (offset): Linear(in_features=256, out_features=288, bias=True)
            (mask): Linear(in_features=256, out_features=144, bias=True)
            (input_proj): Linear(in_features=256, out_features=256, bias=True)
            (output_proj): Linear(in_features=256, out_features=256, bias=True)
          )
          (drop_path): DropPath()
          (norm2): Sequential(
            (0): LayerNorm((256,), eps=1e-06, elementwise_affine=True)
          )
          (mlp): MLPLayer(
            (fc1): Linear(in_features=256, out_features=1024, bias=True)
            (act): GELU()
            (fc2): Linear(in_features=1024, out_features=256, bias=True)
            (drop): Dropout(p=0.0, inplace=False)
          )
        )
        (13): InternImageLayer(
          (norm1): Sequential(
            (0): LayerNorm((256,), eps=1e-06, elementwise_affine=True)
          )
          (dcn): DCNv3(
            (dw_conv): Sequential(
              (0): Conv2d(256, 256, kernel_size=(3, 3), stride=(1, 1), padding=(1, 1), groups=256)
              (1): Sequential(
                (0): to_channels_last()
                (1): LayerNorm((256,), eps=1e-06, elementwise_affine=True)
              )
              (2): GELU()
            )
            (offset): Linear(in_features=256, out_features=288, bias=True)
            (mask): Linear(in_features=256, out_features=144, bias=True)
            (input_proj): Linear(in_features=256, out_features=256, bias=True)
            (output_proj): Linear(in_features=256, out_features=256, bias=True)
          )
          (drop_path): DropPath()
          (norm2): Sequential(
            (0): LayerNorm((256,), eps=1e-06, elementwise_affine=True)
          )
          (mlp): MLPLayer(
            (fc1): Linear(in_features=256, out_features=1024, bias=True)
            (act): GELU()
            (fc2): Linear(in_features=1024, out_features=256, bias=True)
            (drop): Dropout(p=0.0, inplace=False)
          )
        )
        (14): InternImageLayer(
          (norm1): Sequential(
            (0): LayerNorm((256,), eps=1e-06, elementwise_affine=True)
          )
          (dcn): DCNv3(
            (dw_conv): Sequential(
              (0): Conv2d(256, 256, kernel_size=(3, 3), stride=(1, 1), padding=(1, 1), groups=256)
              (1): Sequential(
                (0): to_channels_last()
                (1): LayerNorm((256,), eps=1e-06, elementwise_affine=True)
              )
              (2): GELU()
            )
            (offset): Linear(in_features=256, out_features=288, bias=True)
            (mask): Linear(in_features=256, out_features=144, bias=True)
            (input_proj): Linear(in_features=256, out_features=256, bias=True)
            (output_proj): Linear(in_features=256, out_features=256, bias=True)
          )
          (drop_path): DropPath()
          (norm2): Sequential(
            (0): LayerNorm((256,), eps=1e-06, elementwise_affine=True)
          )
          (mlp): MLPLayer(
            (fc1): Linear(in_features=256, out_features=1024, bias=True)
            (act): GELU()
            (fc2): Linear(in_features=1024, out_features=256, bias=True)
            (drop): Dropout(p=0.0, inplace=False)
          )
        )
        (15): InternImageLayer(
          (norm1): Sequential(
            (0): LayerNorm((256,), eps=1e-06, elementwise_affine=True)
          )
          (dcn): DCNv3(
            (dw_conv): Sequential(
              (0): Conv2d(256, 256, kernel_size=(3, 3), stride=(1, 1), padding=(1, 1), groups=256)
              (1): Sequential(
                (0): to_channels_last()
                (1): LayerNorm((256,), eps=1e-06, elementwise_affine=True)
              )
              (2): GELU()
            )
            (offset): Linear(in_features=256, out_features=288, bias=True)
            (mask): Linear(in_features=256, out_features=144, bias=True)
            (input_proj): Linear(in_features=256, out_features=256, bias=True)
            (output_proj): Linear(in_features=256, out_features=256, bias=True)
          )
          (drop_path): DropPath()
          (norm2): Sequential(
            (0): LayerNorm((256,), eps=1e-06, elementwise_affine=True)
          )
          (mlp): MLPLayer(
            (fc1): Linear(in_features=256, out_features=1024, bias=True)
            (act): GELU()
            (fc2): Linear(in_features=1024, out_features=256, bias=True)
            (drop): Dropout(p=0.0, inplace=False)
          )
        )
        (16): InternImageLayer(
          (norm1): Sequential(
            (0): LayerNorm((256,), eps=1e-06, elementwise_affine=True)
          )
          (dcn): DCNv3(
            (dw_conv): Sequential(
              (0): Conv2d(256, 256, kernel_size=(3, 3), stride=(1, 1), padding=(1, 1), groups=256)
              (1): Sequential(
                (0): to_channels_last()
                (1): LayerNorm((256,), eps=1e-06, elementwise_affine=True)
              )
              (2): GELU()
            )
            (offset): Linear(in_features=256, out_features=288, bias=True)
            (mask): Linear(in_features=256, out_features=144, bias=True)
            (input_proj): Linear(in_features=256, out_features=256, bias=True)
            (output_proj): Linear(in_features=256, out_features=256, bias=True)
          )
          (drop_path): DropPath()
          (norm2): Sequential(
            (0): LayerNorm((256,), eps=1e-06, elementwise_affine=True)
          )
          (mlp): MLPLayer(
            (fc1): Linear(in_features=256, out_features=1024, bias=True)
            (act): GELU()
            (fc2): Linear(in_features=1024, out_features=256, bias=True)
            (drop): Dropout(p=0.0, inplace=False)
          )
        )
        (17): InternImageLayer(
          (norm1): Sequential(
            (0): LayerNorm((256,), eps=1e-06, elementwise_affine=True)
          )
          (dcn): DCNv3(
            (dw_conv): Sequential(
              (0): Conv2d(256, 256, kernel_size=(3, 3), stride=(1, 1), padding=(1, 1), groups=256)
              (1): Sequential(
                (0): to_channels_last()
                (1): LayerNorm((256,), eps=1e-06, elementwise_affine=True)
              )
              (2): GELU()
            )
            (offset): Linear(in_features=256, out_features=288, bias=True)
            (mask): Linear(in_features=256, out_features=144, bias=True)
            (input_proj): Linear(in_features=256, out_features=256, bias=True)
            (output_proj): Linear(in_features=256, out_features=256, bias=True)
          )
          (drop_path): DropPath()
          (norm2): Sequential(
            (0): LayerNorm((256,), eps=1e-06, elementwise_affine=True)
          )
          (mlp): MLPLayer(
            (fc1): Linear(in_features=256, out_features=1024, bias=True)
            (act): GELU()
            (fc2): Linear(in_features=1024, out_features=256, bias=True)
            (drop): Dropout(p=0.0, inplace=False)
          )
        )
      )
      (norm): Sequential(
        (0): LayerNorm((256,), eps=1e-06, elementwise_affine=True)
      )
      (downsample): DownsampleLayer(
        (conv): Conv2d(256, 512, kernel_size=(3, 3), stride=(2, 2), padding=(1, 1), bias=False)
        (norm): Sequential(
          (0): to_channels_last()
          (1): LayerNorm((512,), eps=1e-06, elementwise_affine=True)
        )
      )
    )
    (3): InternImageBlock(
      (blocks): ModuleList(
        (0): InternImageLayer(
          (norm1): Sequential(
            (0): LayerNorm((512,), eps=1e-06, elementwise_affine=True)
          )
          (dcn): DCNv3(
            (dw_conv): Sequential(
              (0): Conv2d(512, 512, kernel_size=(3, 3), stride=(1, 1), padding=(1, 1), groups=512)
              (1): Sequential(
                (0): to_channels_last()
                (1): LayerNorm((512,), eps=1e-06, elementwise_affine=True)
              )
              (2): GELU()
            )
            (offset): Linear(in_features=512, out_features=576, bias=True)
            (mask): Linear(in_features=512, out_features=288, bias=True)
            (input_proj): Linear(in_features=512, out_features=512, bias=True)
            (output_proj): Linear(in_features=512, out_features=512, bias=True)
          )
          (drop_path): DropPath()
          (norm2): Sequential(
            (0): LayerNorm((512,), eps=1e-06, elementwise_affine=True)
          )
          (mlp): MLPLayer(
            (fc1): Linear(in_features=512, out_features=2048, bias=True)
            (act): GELU()
            (fc2): Linear(in_features=2048, out_features=512, bias=True)
            (drop): Dropout(p=0.0, inplace=False)
          )
        )
        (1): InternImageLayer(
          (norm1): Sequential(
            (0): LayerNorm((512,), eps=1e-06, elementwise_affine=True)
          )
          (dcn): DCNv3(
            (dw_conv): Sequential(
              (0): Conv2d(512, 512, kernel_size=(3, 3), stride=(1, 1), padding=(1, 1), groups=512)
              (1): Sequential(
                (0): to_channels_last()
                (1): LayerNorm((512,), eps=1e-06, elementwise_affine=True)
              )
              (2): GELU()
            )
            (offset): Linear(in_features=512, out_features=576, bias=True)
            (mask): Linear(in_features=512, out_features=288, bias=True)
            (input_proj): Linear(in_features=512, out_features=512, bias=True)
            (output_proj): Linear(in_features=512, out_features=512, bias=True)
          )
          (drop_path): DropPath()
          (norm2): Sequential(
            (0): LayerNorm((512,), eps=1e-06, elementwise_affine=True)
          )
          (mlp): MLPLayer(
            (fc1): Linear(in_features=512, out_features=2048, bias=True)
            (act): GELU()
            (fc2): Linear(in_features=2048, out_features=512, bias=True)
            (drop): Dropout(p=0.0, inplace=False)
          )
        )
        (2): InternImageLayer(
          (norm1): Sequential(
            (0): LayerNorm((512,), eps=1e-06, elementwise_affine=True)
          )
          (dcn): DCNv3(
            (dw_conv): Sequential(
              (0): Conv2d(512, 512, kernel_size=(3, 3), stride=(1, 1), padding=(1, 1), groups=512)
              (1): Sequential(
                (0): to_channels_last()
                (1): LayerNorm((512,), eps=1e-06, elementwise_affine=True)
              )
              (2): GELU()
            )
            (offset): Linear(in_features=512, out_features=576, bias=True)
            (mask): Linear(in_features=512, out_features=288, bias=True)
            (input_proj): Linear(in_features=512, out_features=512, bias=True)
            (output_proj): Linear(in_features=512, out_features=512, bias=True)
          )
          (drop_path): DropPath()
          (norm2): Sequential(
            (0): LayerNorm((512,), eps=1e-06, elementwise_affine=True)
          )
          (mlp): MLPLayer(
            (fc1): Linear(in_features=512, out_features=2048, bias=True)
            (act): GELU()
            (fc2): Linear(in_features=2048, out_features=512, bias=True)
            (drop): Dropout(p=0.0, inplace=False)
          )
        )
        (3): InternImageLayer(
          (norm1): Sequential(
            (0): LayerNorm((512,), eps=1e-06, elementwise_affine=True)
          )
          (dcn): DCNv3(
            (dw_conv): Sequential(
              (0): Conv2d(512, 512, kernel_size=(3, 3), stride=(1, 1), padding=(1, 1), groups=512)
              (1): Sequential(
                (0): to_channels_last()
                (1): LayerNorm((512,), eps=1e-06, elementwise_affine=True)
              )
              (2): GELU()
            )
            (offset): Linear(in_features=512, out_features=576, bias=True)
            (mask): Linear(in_features=512, out_features=288, bias=True)
            (input_proj): Linear(in_features=512, out_features=512, bias=True)
            (output_proj): Linear(in_features=512, out_features=512, bias=True)
          )
          (drop_path): DropPath()
          (norm2): Sequential(
            (0): LayerNorm((512,), eps=1e-06, elementwise_affine=True)
          )
          (mlp): MLPLayer(
            (fc1): Linear(in_features=512, out_features=2048, bias=True)
            (act): GELU()
            (fc2): Linear(in_features=2048, out_features=512, bias=True)
            (drop): Dropout(p=0.0, inplace=False)
          )
        )
      )
      (norm): Sequential(
        (0): LayerNorm((512,), eps=1e-06, elementwise_affine=True)
      )
    )
  )
  (conv_head): Sequential(
    (0): Conv2d(512, 768, kernel_size=(1, 1), stride=(1, 1), bias=False)
    (1): Sequential(
      (0): BatchNorm2d(768, eps=1e-05, momentum=0.1, affine=True, track_running_stats=True)
    )
    (2): GELU()
  )
  (head): Linear(in_features=768, out_features=3, bias=True)
  (avgpool): AdaptiveAvgPool2d(output_size=(1, 1))
)
[2023-09-26 16:48:39 internimage_t_1k_224] (main.py 217): INFO Using native Torch AMP. Training in mixed precision.
[2023-09-26 16:48:39 internimage_t_1k_224] (main.py 228): INFO using fp16_compress_hook!
[2023-09-26 16:48:39 internimage_t_1k_224] (main.py 236): INFO number of params: 29151731
[2023-09-26 16:52:38 internimage_t_1k_224] (main.py 701): INFO Full config saved to cls_train_auc_08/internimage_t_1k_224/config.json
…
